Before oversampling: Counter({50.0: 52538, 10.0: 30078, 0.0: 22772, 100.0: 7624})
After oversampling: Counter({100.0: 52538, 50.0: 52538, 10.0: 52538, 0.0: 52538})
Model: "sequential"
_________________________________________________________________
Layer (type)                 Output Shape              Param #   
=================================================================
conv1d (Conv1D)              (None, 16, 64)            256       
_________________________________________________________________
conv1d_1 (Conv1D)            (None, 14, 64)            12352     
_________________________________________________________________
max_pooling1d (MaxPooling1D) (None, 7, 64)             0         
_________________________________________________________________
flatten (Flatten)            (None, 448)               0         
_________________________________________________________________
dense (Dense)                (None, 14)                6286      
_________________________________________________________________
dense_1 (Dense)              (None, 4)                 60        
=================================================================
Total params: 18,954
Trainable params: 18,954
Non-trainable params: 0
_________________________________________________________________
Epoch 1/100
21016/21016 - 17s - loss: 0.7778 - accuracy: 0.6716 - val_loss: 0.7793 - val_accuracy: 0.6798

Epoch 00001: val_loss improved from inf to 0.77927, saving model to ./results/CNN_trial_9_3/cp.ckpt
…
