Before oversampling: Counter({50.0: 52538, 10.0: 30078, 0.0: 22772, 100.0: 7624})
After oversampling: Counter({100.0: 52538, 50.0: 52538, 10.0: 52538, 0.0: 52538})
Model: "sequential"
_________________________________________________________________
Layer (type)                 Output Shape              Param #   
=================================================================
conv1d (Conv1D)              (None, 19, 64)            256       
_________________________________________________________________
conv1d_1 (Conv1D)            (None, 17, 64)            12352     
_________________________________________________________________
max_pooling1d (MaxPooling1D) (None, 8, 64)             0         
_________________________________________________________________
flatten (Flatten)            (None, 512)               0         
_________________________________________________________________
dense (Dense)                (None, 16)                8208      
_________________________________________________________________
dense_1 (Dense)              (None, 4)                 68        
=================================================================
Total params: 20,884
Trainable params: 20,884
Non-trainable params: 0
_________________________________________________________________
Epoch 1/100
21016/21016 - 18s - loss: 0.7732 - accuracy: 0.6748 - val_loss: 0.7443 - val_accuracy: 0.6806

Epoch 00001: val_loss improved from inf to 0.74429, saving model to ./results/CNN_trial_9_1/cp.ckpt
…
