Model: "sequential"
_________________________________________________________________
Layer (type)                 Output Shape              Param #   
=================================================================
conv1d (Conv1D)              (None, 24, 64)            256       
_________________________________________________________________
dense (Dense)                (None, 24, 128)           8320      
_________________________________________________________________
max_pooling1d (MaxPooling1D) (None, 12, 128)           0         
_________________________________________________________________
flatten (Flatten)            (None, 1536)              0         
_________________________________________________________________
dense_1 (Dense)              (None, 15)                23055     
=================================================================
Total params: 31,631
Trainable params: 31,631
Non-trainable params: 0
_________________________________________________________________
24628/24628 - 5s
Test accuracy: 0.40064154620756864
[[  0.   1.   2.  10.  20.  30.  40.  50.  60.  70.  80.  90.  91.  92. 100.]]
[[7020 1056    0    3   80    0    0    0    0    1   62    0    0    0   24]
…
