…
5, 0.0: 7615, 60.0: 7609, 10.0: 7595, 70.0: 7583, 1.0: 7580, 2.0: 7577, 20.0: 7519, 40.0: 7516, 50.0: 7476, 30.0: 7448, 90.0: 7439, 80.0: 7188})
After oversampling: Counter({100.0: 7628, 92.0: 7628, 91.0: 7628, 90.0: 7628, 20.0: 7628, 1.0: 7628, 80.0: 7628, 70.0: 7628, 0.0: 7628, 50.0: 7628, 30.0: 7628, 10.0: 7628, 40.0: 7628, 2.0: 7628, 60.0: 7628})
Model: "sequential"
_________________________________________________________________
Layer (type)                 Output Shape              Param #   
=================================================================
conv1d (Conv1D)              (None, 19, 64)            256       
_________________________________________________________________
conv1d_1 (Conv1D)            (None, 17, 64)            12352     
_________________________________________________________________
max_pooling1d (MaxPooling1D) (None, 8, 64)             0         
_________________________________________________________________
flatten (Flatten)            (None, 512)               0         
_________________________________________________________________
dense (Dense)                (None, 24)                12312     
_________________________________________________________________
dense_1 (Dense)              (None, 15)                375       
=================================================================
Total params: 25,295
Trainable params: 25,295
Non-trainable params: 0
_________________________________________________________________
Epoch 1/100
11442/11442 - 10s - loss: 2.0398 - accuracy: 0.2823 - val_loss: 2.1155 - val_accuracy: 0.2327

Epoch 00001: val_loss improved from inf to 2.11547, saving model to ./results/CNN_trial_6_1/cp.ckpt
…
