Before oversampling: Counter({50.0: 52538, 10.0: 30078, 0.0: 22772, 100.0: 7624})
After oversampling: Counter({100.0: 52538, 50.0: 52538, 10.0: 52538, 0.0: 52538})
Model: "sequential"
_________________________________________________________________
Layer (type)                 Output Shape              Param #   
=================================================================
conv1d (Conv1D)              (None, 14, 64)            384       
_________________________________________________________________
conv1d_1 (Conv1D)            (None, 10, 64)            20544     
_________________________________________________________________
max_pooling1d (MaxPooling1D) (None, 5, 64)             0         
_________________________________________________________________
flatten (Flatten)            (None, 320)               0         
_________________________________________________________________
dense (Dense)                (None, 14)                4494      
_________________________________________________________________
dense_1 (Dense)              (None, 4)                 60        
=================================================================
Total params: 25,482
Trainable params: 25,482
Non-trainable params: 0
_________________________________________________________________
Epoch 1/100
21016/21016 - 18s - loss: 0.7842 - accuracy: 0.6707 - val_loss: 0.7702 - val_accuracy: 0.6770

Epoch 00001: val_loss improved from inf to 0.77017, saving model to ./results/CNN_trial_9/cp.ckpt
…
