Before oversampling: Counter({50.0: 52538, 10.0: 30078, 0.0: 22772, 100.0: 7624})
After oversampling: Counter({100.0: 52538, 50.0: 52538, 10.0: 52538, 0.0: 52538})
Model: "sequential"
_________________________________________________________________
Layer (type)                 Output Shape              Param #   
=================================================================
conv1d (Conv1D)              (None, 19, 64)            384       
_________________________________________________________________
conv1d_1 (Conv1D)            (None, 15, 64)            20544     
_________________________________________________________________
max_pooling1d (MaxPooling1D) (None, 7, 64)             0         
_________________________________________________________________
flatten (Flatten)            (None, 448)               0         
_________________________________________________________________
dense (Dense)                (None, 18)                8082      
_________________________________________________________________
dense_1 (Dense)              (None, 4)                 76        
=================================================================
Total params: 29,086
Trainable params: 29,086
Non-trainable params: 0
_________________________________________________________________
Epoch 1/100
21016/21016 - 18s - loss: 0.7655 - accuracy: 0.6755 - val_loss: 0.7205 - val_accuracy: 0.6915

Epoch 00001: val_loss improved from inf to 0.72048, saving model to ./results/CNN_trial_9/cp.ckpt
…
