Before oversampling: Counter({0.0: 22772, 40.0: 22601, 10.0: 22562, 70.0: 22210, 91.0: 15243, 100.0: 7624})
After oversampling: Counter({100.0: 22772, 91.0: 22772, 70.0: 22772, 10.0: 22772, 0.0: 22772, 40.0: 22772})
Model: "sequential"
_________________________________________________________________
Layer (type)                 Output Shape              Param #   
=================================================================
conv1d (Conv1D)              (None, 19, 64)            384       
_________________________________________________________________
conv1d_1 (Conv1D)            (None, 15, 64)            20544     
_________________________________________________________________
max_pooling1d (MaxPooling1D) (None, 7, 64)             0         
_________________________________________________________________
flatten (Flatten)            (None, 448)               0         
_________________________________________________________________
dense (Dense)                (None, 19)                8531      
_________________________________________________________________
dense_1 (Dense)              (None, 6)                 120       
=================================================================
Total params: 29,579
Trainable params: 29,579
Non-trainable params: 0
_________________________________________________________________
Epoch 1/100
13664/13664 - 13s - loss: 1.0989 - accuracy: 0.5482 - val_loss: 1.0982 - val_accuracy: 0.5485

Epoch 00001: val_loss improved from inf to 1.09821, saving model to ./results/CNN_trial_8/cp.ckpt
…
