Before oversampling: Counter({0.0: 22772, 40.0: 22601, 10.0: 22562, 70.0: 22210, 91.0: 15243, 100.0: 7624})
After oversampling: Counter({100.0: 22772, 91.0: 22772, 70.0: 22772, 10.0: 22772, 0.0: 22772, 40.0: 22772})
Model: "sequential"
_________________________________________________________________
Layer (type)                 Output Shape              Param #   
=================================================================
conv1d (Conv1D)              (None, 14, 64)            384       
_________________________________________________________________
conv1d_1 (Conv1D)            (None, 10, 64)            20544     
_________________________________________________________________
max_pooling1d (MaxPooling1D) (None, 5, 64)             0         
_________________________________________________________________
flatten (Flatten)            (None, 320)               0         
_________________________________________________________________
dense (Dense)                (None, 16)                5136      
_________________________________________________________________
dense_1 (Dense)              (None, 6)                 102       
=================================================================
Total params: 26,166
Trainable params: 26,166
Non-trainable params: 0
_________________________________________________________________
Epoch 1/100
13664/13664 - 10s - loss: 1.1265 - accuracy: 0.5360 - val_loss: 1.0977 - val_accuracy: 0.5445

Epoch 00001: val_loss improved from inf to 1.09768, saving model to ./results/CNN_trial_8/cp.ckpt
…
