Before oversampling: Counter({0.0: 22772, 40.0: 22601, 10.0: 22562, 70.0: 22210, 91.0: 15243, 100.0: 7624})
After oversampling: Counter({100.0: 22772, 91.0: 22772, 70.0: 22772, 10.0: 22772, 0.0: 22772, 40.0: 22772})
Model: "sequential"
_________________________________________________________________
Layer (type)                 Output Shape              Param #   
=================================================================
conv1d (Conv1D)              (None, 19, 64)            512       
_________________________________________________________________
conv1d_1 (Conv1D)            (None, 13, 64)            28736     
_________________________________________________________________
max_pooling1d (MaxPooling1D) (None, 6, 64)             0         
_________________________________________________________________
flatten (Flatten)            (None, 384)               0         
_________________________________________________________________
dense (Dense)                (None, 20)                7700      
_________________________________________________________________
dense_1 (Dense)              (None, 6)                 126       
=================================================================
Total params: 37,074
Trainable params: 37,074
Non-trainable params: 0
_________________________________________________________________
Epoch 1/100
13664/13664 - 13s - loss: 1.0863 - accuracy: 0.5523 - val_loss: 1.0721 - val_accuracy: 0.5719

Epoch 00001: val_loss improved from inf to 1.07207, saving model to ./results/CNN_trial_8_2/cp.ckpt
…
