Before oversampling: Counter({0.0: 22772, 40.0: 22601, 10.0: 22562, 70.0: 22210, 91.0: 15243, 100.0: 7624})
After oversampling: Counter({100.0: 22772, 91.0: 22772, 70.0: 22772, 10.0: 22772, 0.0: 22772, 40.0: 22772})
Model: "sequential"
_________________________________________________________________
Layer (type)                 Output Shape              Param #   
=================================================================
conv1d (Conv1D)              (None, 12, 64)            512       
_________________________________________________________________
conv1d_1 (Conv1D)            (None, 6, 64)             28736     
_________________________________________________________________
max_pooling1d (MaxPooling1D) (None, 3, 64)             0         
_________________________________________________________________
flatten (Flatten)            (None, 192)               0         
_________________________________________________________________
dense (Dense)                (None, 16)                3088      
_________________________________________________________________
dense_1 (Dense)              (None, 6)                 102       
=================================================================
Total params: 32,438
Trainable params: 32,438
Non-trainable params: 0
_________________________________________________________________
Epoch 1/100
13664/13664 - 11s - loss: 1.1277 - accuracy: 0.5356 - val_loss: 1.1117 - val_accuracy: 0.5507

Epoch 00001: val_loss improved from inf to 1.11173, saving model to ./results/CNN_trial_8_4/cp.ckpt
…
