Before oversampling: Counter({0.0: 22772, 10.0: 15114, 50.0: 15085, 90.0: 15054, 30.0: 14964, 70.0: 14771, 92.0: 7628, 100.0: 7624})
After oversampling: Counter({100.0: 22772, 92.0: 22772, 90.0: 22772, 10.0: 22772, 0.0: 22772, 70.0: 22772, 50.0: 22772, 30.0: 22772})
Model: "sequential"
_________________________________________________________________
Layer (type)                 Output Shape              Param #   
=================================================================
conv1d (Conv1D)              (None, 19, 64)            256       
_________________________________________________________________
conv1d_1 (Conv1D)            (None, 17, 64)            12352     
_________________________________________________________________
max_pooling1d (MaxPooling1D) (None, 8, 64)             0         
_________________________________________________________________
flatten (Flatten)            (None, 512)               0         
_________________________________________________________________
dense (Dense)                (None, 19)                9747      
_________________________________________________________________
dense_1 (Dense)              (None, 8)                 160       
=================================================================
Total params: 22,515
Trainable params: 22,515
Non-trainable params: 0
_________________________________________________________________
Epoch 1/100
18218/18218 - 16s - loss: 1.4172 - accuracy: 0.4423 - val_loss: 1.3822 - val_accuracy: 0.4380

Epoch 00001: val_loss improved from inf to 1.38223, saving model to ./results/CNN_trial_7_1/cp.ckpt
…
