Before oversampling: Counter({0.0: 22772, 10.0: 15114, 50.0: 15085, 90.0: 15054, 30.0: 14964, 70.0: 14771, 92.0: 7628, 100.0: 7624})
After oversampling: Counter({100.0: 22772, 92.0: 22772, 90.0: 22772, 10.0: 22772, 0.0: 22772, 70.0: 22772, 50.0: 22772, 30.0: 22772})
Model: "sequential"
_________________________________________________________________
Layer (type)                 Output Shape              Param #   
=================================================================
conv1d (Conv1D)              (None, 19, 64)            384       
_________________________________________________________________
conv1d_1 (Conv1D)            (None, 15, 64)            20544     
_________________________________________________________________
max_pooling1d (MaxPooling1D) (None, 7, 64)             0         
_________________________________________________________________
flatten (Flatten)            (None, 448)               0         
_________________________________________________________________
dense (Dense)                (None, 20)                8980      
_________________________________________________________________
dense_1 (Dense)              (None, 8)                 168       
=================================================================
Total params: 30,076
Trainable params: 30,076
Non-trainable params: 0
_________________________________________________________________
Epoch 1/100
18218/18218 - 16s - loss: 1.4328 - accuracy: 0.4315 - val_loss: 1.3647 - val_accuracy: 0.4567

Epoch 00001: val_loss improved from inf to 1.36471, saving model to ./results/CNN_trial_7/cp.ckpt
…
