Before oversampling: Counter({0.0: 22772, 10.0: 15114, 50.0: 15085, 90.0: 15054, 30.0: 14964, 70.0: 14771, 92.0: 7628, 100.0: 7624})
After oversampling: Counter({100.0: 22772, 92.0: 22772, 90.0: 22772, 10.0: 22772, 0.0: 22772, 70.0: 22772, 50.0: 22772, 30.0: 22772})
Model: "sequential"
_________________________________________________________________
Layer (type)                 Output Shape              Param #   
=================================================================
conv1d (Conv1D)              (None, 14, 64)            384       
_________________________________________________________________
conv1d_1 (Conv1D)            (None, 10, 64)            20544     
_________________________________________________________________
max_pooling1d (MaxPooling1D) (None, 5, 64)             0         
_________________________________________________________________
flatten (Flatten)            (None, 320)               0         
_________________________________________________________________
dense (Dense)                (None, 17)                5457      
_________________________________________________________________
dense_1 (Dense)              (None, 8)                 144       
=================================================================
Total params: 26,529
Trainable params: 26,529
Non-trainable params: 0
_________________________________________________________________
Epoch 1/100
18218/18218 - 16s - loss: 1.4439 - accuracy: 0.4297 - val_loss: 1.3786 - val_accuracy: 0.4623

Epoch 00001: val_loss improved from inf to 1.37863, saving model to ./results/CNN_trial_7/cp.ckpt
…
