Before oversampling: Counter({50.0: 52538, 10.0: 30078, 0.0: 22772, 100.0: 7624})
After oversampling: Counter({100.0: 52538, 50.0: 52538, 10.0: 52538, 0.0: 52538})
Model: "sequential"
_________________________________________________________________
Layer (type)                 Output Shape              Param #   
=================================================================
conv1d (Conv1D)              (None, 19, 64)            512       
_________________________________________________________________
conv1d_1 (Conv1D)            (None, 13, 64)            28736     
_________________________________________________________________
max_pooling1d (MaxPooling1D) (None, 6, 64)             0         
_________________________________________________________________
flatten (Flatten)            (None, 384)               0         
_________________________________________________________________
dense (Dense)                (None, 19)                7315      
_________________________________________________________________
dense_1 (Dense)              (None, 4)                 80        
=================================================================
Total params: 36,643
Trainable params: 36,643
Non-trainable params: 0
_________________________________________________________________
Epoch 1/100
21016/21016 - 20s - loss: 0.7722 - accuracy: 0.6747 - val_loss: 0.7450 - val_accuracy: 0.6786

Epoch 00001: val_loss improved from inf to 0.74498, saving model to ./results/CNN_trial_9_2/cp.ckpt
…
