Before oversampling: Counter({50.0: 52538, 10.0: 30078, 0.0: 22772, 100.0: 7624})
After oversampling: Counter({100.0: 52538, 50.0: 52538, 10.0: 52538, 0.0: 52538})
Model: "sequential"
_________________________________________________________________
Layer (type)                 Output Shape              Param #   
=================================================================
conv1d (Conv1D)              (None, 12, 64)            512       
_________________________________________________________________
conv1d_1 (Conv1D)            (None, 6, 64)             28736     
_________________________________________________________________
max_pooling1d (MaxPooling1D) (None, 3, 64)             0         
_________________________________________________________________
flatten (Flatten)            (None, 192)               0         
_________________________________________________________________
dense (Dense)                (None, 14)                2702      
_________________________________________________________________
dense_1 (Dense)              (None, 4)                 60        
=================================================================
Total params: 32,010
Trainable params: 32,010
Non-trainable params: 0
_________________________________________________________________
Epoch 1/100
21016/21016 - 15s - loss: 0.7837 - accuracy: 0.6674 - val_loss: 0.7502 - val_accuracy: 0.6866

Epoch 00001: val_loss improved from inf to 0.75016, saving model to ./results/CNN_trial_9_4/cp.ckpt
…
